Model: "sequential"
_________________________________________________________________
Layer (type)                 Output Shape              Param #
=================================================================
conv2d (Conv2D)              (None, 55, 55, 96)        34944
_________________________________________________________________
batch_normalization (BatchNo (None, 55, 55, 96)        384
_________________________________________________________________
max_pooling2d (MaxPooling2D) (None, 13, 13, 96)        0
_________________________________________________________________
flatten (Flatten)            (None, 16224)             0
_________________________________________________________________
dense (Dense)                (None, 4096)              66457600
_________________________________________________________________
dropout (Dropout)            (None, 4096)              0
_________________________________________________________________
dense_1 (Dense)              (None, 15)                61455
=================================================================
Total params: 66,554,383
Trainable params: 66,554,191
Non-trainable params: 192
_________________________________________________________________


Epoch 1/50
187/187 [==============================] - 77s 414ms/step - loss: 3.3617 - accuracy: 0.1816 - sparse_top_k_categorical_accuracy: 0.5598 - val_loss: 2.3706 - val_accuracy: 0.2433 - val_sparse_top_k_categorical_accuracy: 0.6390
…
