Model: "sequential"
_________________________________________________________________
Layer (type)                 Output Shape              Param #
=================================================================
conv2d (Conv2D)              (None, 55, 55, 96)        34944
_________________________________________________________________
batch_normalization (BatchNo (None, 55, 55, 96)        384
_________________________________________________________________
max_pooling2d (MaxPooling2D) (None, 27, 27, 96)        0
_________________________________________________________________
conv2d_1 (Conv2D)            (None, 27, 27, 256)       614656
_________________________________________________________________
batch_normalization_1 (Batch (None, 27, 27, 256)       1024
_________________________________________________________________
max_pooling2d_1 (MaxPooling2 (None, 13, 13, 256)       0
_________________________________________________________________
conv2d_2 (Conv2D)            (None, 13, 13, 256)       590080
_________________________________________________________________
batch_normalization_2 (Batch (None, 13, 13, 256)       1024
_________________________________________________________________
max_pooling2d_2 (MaxPooling2 (None, 6, 6, 256)         0
_________________________________________________________________
flatten (Flatten)            (None, 9216)              0
_________________________________________________________________
dense (Dense)                (None, 4096)              37752832
_________________________________________________________________
dropout (Dropout)            (None, 4096)              0
_________________________________________________________________
dense_1 (Dense)              (None, 4096)              16781312
_________________________________________________________________
dropout_1 (Dropout)          (None, 4096)              0
_________________________________________________________________
dense_2 (Dense)              (None, 15)                61455
=================================================================
Total params: 55,837,711
Trainable params: 55,836,495
Non-trainable params: 1,216
_________________________________________________________________
Epoch 1/50
187/187 [==============================] - 235s 1s/step - loss: 3.4040 - accuracy: 0.1553 - sparse_top_k_categorical_accuracy: 0.5219 - val_loss: 2.4958 - val_accuracy: 0.2030 - val_sparse_top_k_categorical_accuracy: 0.5377
…
