Model: "sequential"
_________________________________________________________________
Layer (type)                 Output Shape              Param #   
=================================================================
conv2d (Conv2D)              (None, 55, 55, 96)        34944     
_________________________________________________________________
batch_normalization (BatchNo (None, 55, 55, 96)        384       
_________________________________________________________________
max_pooling2d (MaxPooling2D) (None, 27, 27, 96)        0         
_________________________________________________________________
conv2d_1 (Conv2D)            (None, 27, 27, 256)       614656    
_________________________________________________________________
batch_normalization_1 (Batch (None, 27, 27, 256)       1024      
_________________________________________________________________
max_pooling2d_1 (MaxPooling2 (None, 13, 13, 256)       0         
_________________________________________________________________
conv2d_2 (Conv2D)            (None, 13, 13, 384)       885120    
_________________________________________________________________
batch_normalization_2 (Batch (None, 13, 13, 384)       1536      
_________________________________________________________________
conv2d_3 (Conv2D)            (None, 13, 13, 384)       1327488   
_________________________________________________________________
batch_normalization_3 (Batch (None, 13, 13, 384)       1536      
_________________________________________________________________
conv2d_4 (Conv2D)            (None, 13, 13, 256)       884992    
_________________________________________________________________
batch_normalization_4 (Batch (None, 13, 13, 256)       1024      
_________________________________________________________________
max_pooling2d_2 (MaxPooling2 (None, 6, 6, 256)         0         
_________________________________________________________________
flatten (Flatten)            (None, 9216)              0         
_________________________________________________________________
dense (Dense)                (None, 4096)              37752832  
_________________________________________________________________
dropout (Dropout)            (None, 4096)              0         
_________________________________________________________________
dense_1 (Dense)              (None, 4096)              16781312  
_________________________________________________________________
dropout_1 (Dropout)          (None, 4096)              0         
_________________________________________________________________
dense_2 (Dense)              (None, 15)                61455     
=================================================================
Total params: 58,348,303
Trainable params: 58,345,551
Non-trainable params: 2,752
_________________________________________________________________
Epoch 1/50
  1/187 [..............................] - ETA: 0s - loss: 4.8425 - accuracy: 0.1562 - sparse_top_k_categorical_accuracy: 0.4375
…
